checkpoint.pt (torch_old, 14354 bytes, 8 tensors)

linear_pre.weight f4 [32, 2]
-0.58706194 0.35355058 0.6678833 -0.28315157 -0.045257486 0.64251786 0.47205558 0.26708013
0.47283825 -0.24951741 -0.59113467 0.61720335 0.006885552 0.48878288 -0.12065604 0.32960826
0.28675875 0.4466596 0.19638301 -0.059859272 -0.36035037 -0.3439185 -0.6147111 0.33577752
-0.08828219 0.34928378 0.7269924 0.6131566 -0.6040653 0.44405884 -0.57298726 0.5853686
-0.5167872 0.7303098 0.531584 -0.2651019 -0.39395908 0.16677712 -0.42307618 -0.4246173
-0.28694212 0.62664217 0.66234297 0.645555 0.4315366 0.36560202 -0.6174622 0.057111796
-0.09802245 0.41453058 -0.19521084 0.60642403 -0.027033653 -0.24335656 0.010655728 0.023059784
-0.6403759 0.426323 -0.02813494 0.019356886 0.67845833 -0.5829622 0.32436603 -0.076698124
00000000: b149 16bf 9504 b53e 66fa 2a3f 3ef9 90be
00000010: ea5f 39bd 0d7c 243f 45b1 f13e babe 883e
00000020: db17 f23e 7e81 7fbe 9a54 17bf 0a01 1e3f
00000030: 32a0 e13b c041 fa3e 841a f7bd 6ac2 a83e
00000040: 0bd2 923e 91b0 e43e a118 493e ff2e 75bd
00000050: d87f b8be 1616 b0be b55d 1dbf 08eb ab3e
00000060: 4bcd b4bd 53d5 b23e 2d1c 3a3f d5f7 1c3f
00000070: 06a4 1abf ae5b e33e 4baf 12bf b7da 153f
00000080: 2a4c 04bf 95f5 3a3f e415 083f 70bb 87be
00000090: 01b5 c9be 9fc7 2a3e 719d d8be 7067 d9be
000000a0: 14ea 92be 9f6b 203f 4f8f 293f 1843 253f
000000b0: 5ef2 dc3e 3030 bb3e 0112 1ebf 0fee 693d
000000c0: ffbf c8bd 5a3d d43e 5ae5 47be 9b3e 1b3f
000000d0: ae75 ddbc 7632 79be 5d95 2e3c dfe7 bc3c
000000e0: adef 23bf 0247 da3e 3f7b e6bc 5592 9e3c
000000f0: 72af 2d3f 033d 15bf 4e13 a63e e813 9dbd

linear_pre.bias f4 [32]
0.6035602 -0.4377685 -0.22754069 -0.18441431 0.0026488814 -0.018205473 0.36773255 -0.42985204
0.46059677 0.3286269 -0.32457575 -0.07635503 0.23419063 -0.075306796 -0.6533325 -0.35305223
0.041823987 0.493057 0.32899252 -0.04673931 0.13280167 -0.088820346 -0.19278383 0.5151817
0.29501593 0.20248966 0.15370448 -0.24034408 -0.011046888 -0.17798497 -0.32866365 0.46638656
00000000: ec82 1a3f 3123 e0be 6d00 69be 1bd7 3cbe
00000010: db98 2d3b a523 95bc 7147 bc3e 9115 dcbe
00000020: 57d3 eb3e c941 a83e cb2e a6be 0760 9cbd
00000030: abcf 6f3e 733a 9abd cc40 27bf 43c3 b4be
00000040: a14f 2b3d f871 fc3e b571 a83e b871 3fbd
00000050: 29fd 073e 71e7 b5bd 2069 45be f3e2 033f
00000060: 540c 973e 7359 4f3e b564 1d3e c21c 76be
00000070: 02fe 34bc b141 36be 9a46 a8be 38ca ee3e

conv_first.weight f4 [32, 32]
0.12465932 -0.14179938 0.017757336 0.04096071 0.05376299 -0.020341787 0.08132865 0.2012234
-0.12937915 -0.14710668 0.067706816 -0.14661531 -0.16147579 0.00013683244 -0.10394916 0.09199055
-0.003547531 -0.11214652 -0.123145774 0.050731774 -0.16032177 0.12945725 0.0693408 -0.05082782
-0.15501566 0.012837236 -0.06328478 2.7503182e-21 1.8994511e-06 -0.14055721 -0.08747391 -0.0012357701
0.10406518 1.9848785e-06 0.19780044 -0.15094844 0.1298625 0.107042566 -0.085533954 0.16481553
0.14270666 0.16471611 0.09839162 0.078043975 -0.06078218 0.11845422 -0.07767229 -0.10520803
0.10551321 0.010959253 0.04919792 0.0032131334 0.044711094 0.067735314 0.0006348564 0.03275288
-0.11616322 0.09758302 0.16524352 0.05134064 0.12465238 -0.05506634 -0.12639523 0.058747016
-0.07465479 0.06723729 0.062560946 -0.121712856 -0.092593856 -0.0114462515 -0.1166522 0.03011189
0.03773587 -0.19454268 -0.039749194 -0.105952136 -0.12678126 0.046919946 -0.078945294 0.08390481
-0.15925846 0.026982134 -0.0008767758 0.013273208 -0.015405316 0.13317588 -0.047160257 -0.1490693
-0.11730931 0.078723304 0.023814484 -0.02819083 0.038458265 -0.17095642 0.051227227 0.04110508
0.015681624 0.06317883 0.110567644 0.076354474 -0.085407324 0.00019964988 0.08460114 0.0034748353
0.0046140836 0.17576753 0.13827288 -0.013563623 -0.02545233 0.024128543 0.051607985 0.028584689
0.11450561 0.058439184 -0.1250382 -0.08057274 -0.06813068 -0.06769403 -0.05505077 0.067805134
-0.021592941 0.065885216 -0.0023656166 0.13633402 -0.04956325 0.07343727 0.15593383 0.1254525
0.0466785 0.09231524 0.0863731 -0.000688555 0.0384666 -0.086554386 -0.09904889 -0.058915626
-0.09889579 0.13246287 0.058511272 -0.04264713 0.17799293 -0.09621684 0.04090229 -0.007348624
-0.106687516 -0.09499944 0.019080544 -0.13947368 0.033980764 -0.0012902826 -0.047323544 0.040219136
-0.084589094 0.039844137 -0.058253963 -0.11149023 0.14173377 0.027685294 -0.009083527 0.09152398
0.014953252 -0.061379816 -0.119182475 0.048706945 0.16359837 0.10184958 0.13226548 -0.1539547
-0.08646648 0.096856065 -0.11200813 0.014324901 0.09642198 -0.00035303086 -0.07829527 -0.12329843
-0.11651062 0.0152183175 -0.116328284 -0.10412144 0.020231167 -0.14677994 0.014279355 -0.058430642
-0.025232341 -0.06382137 0.010039909 -0.06677665 -0.002218956 -0.16508535 0.0975024 0.14673476
-0.11841456 0.12599123 -0.1354919 -0.06782599 -0.048842862 -0.005028282 0.09250459 0.19783561
-0.0405189 -0.13290104 -0.0806619 -0.00875452 -0.056493197 0.084289946 0.09498073 -0.026636966
-0.020397775 -0.0737195 0.110749386 -0.031994086 -0.1470173 0.0519216 -0.0837893 -0.026769686
0.014996098 -0.09260328 -0.101552084 -9.437542e-09 -0.062943816 0.10664228 0.11557526 0.025975168
0.05465339 0.014305603 -0.116646454 -0.13531311 -0.11743562 0.10952554 0.13272645 -0.077568136
-0.037572082 -0.11822466 -0.15446803 -0.13064952 -0.17681032 -0.14387657 0.1356089 -0.12578787
-0.023794467 0.13937145 0.02993216 -0.01019546 0.12901919 0.05467043 -0.036362097 0.0154625755
-0.056171104 0.15118693 0.10928498 -0.11333485 -0.00020230735 0.1241204 -0.029685305 0.008658932
00000000: 634d ff3d db33 11be d577 913c 6bc6 273d
00000010: 9536 5c3d d2a3 a6bc a38f a63d 820d 4e3e
00000020: f87b 04be 22a3 16be dfa9 8a3d 5322 16be
00000030: e959 25be ae7a 0f39 4ce3 d4bd 8b65 bc3d
00000040: b27d 68bb 13ad e5bd da33 fcbd 1fcc 4f3d
00000050: 642b 24be 7190 043e 8d02 8e3d d530 50bd
00000060: 6dbc 1ebe 4553 523c 739b 81bd e4ce 4f1d
00000070: a5f0 fe35 3bee 0fbe 8525 b3bd 90f9 a1ba
00000080: 2020 d53d f433 0536 338c 4a3e 3a92 1abe
00000090: adfa 043e 2239 db3d 6d2c afbd 67c5 283e
000000a0: b221 123e 57ab 283e 8c81 c93d 85d5 9f3d
000000b0: bcf6 78bd 2098 f23d a612 9fbd 4f77 d7bd
000000c0: 4f17 d83d 708e 333c c283 493d 6f93 523b
000000d0: fb22 373d d0b8 8a3d 7e6c 263a e227 063d
000000e0: fbe6 edbd 9bd9 c73d 9935 293e 904a 523d
000000f0: bf49 ff3d 3e8d 61bd c06d 01be b6a0 703d
00000100: 9ce4 98bd b4b3 893d f41f 803d 9744 f9bd
00000110: d9a1 bdbd 0f89 3bbc 59e7 eebd 36ad f63c
00000120: ed90 1a3d 3236 47be 0dd0 22bd 6ffd d8bd
00000130: f2d2 01be 212f 403d 12ae a1bd 49d6 ab3d
00000140: a614 23be a309 dd3c 6ed7 65ba df77 593c
00000150: 9466 7cbc 425f 083e 1d2b 41bd 9fa5 18be
00000160: dd3f f0bd af39 a13d 9816 c33c 75f0 e6bc
00000170: 6a86 1d3d 330f 2fbe a4d3 513d cd5d 283d
00000180: c076 803c e763 813d 4a71 e23d bc5f 9c3d
00000190: 09ea aebd 1b59 5139 5d43 ad3d 10ba 633b
000001a0: bd31 973b 67fc 333e 6897 0d3e f539 5ebc
000001b0: 6881 d0bc 39a9 c53c e562 533d 702a ea3c
000001c0: eb81 ea3d ed5d 6f3d 040a 00be 5203 a5bd
000001d0: 1988 8bbd 2ba3 8abd eb7c 61bd 6bdd 8a3d
000001e0: aee3 b0bc d4ee 863d 7608 1bbb 259b 0b3e
000001f0: d602 4bbd 4866 963d 1ead 1f3e 9f76 003e
00000200: f431 3f3d c60f bd3d 61e4 b03d 2580 34ba
00000210: 278f 1d3d 6d43 b1bd 25da cabd 8351 71bd
00000220: e089 cabd 59a4 073e 84a9 6f3d c2ae 2ebd
00000230: c743 363e 560d c5bd 2989 273d bacc f0bb
00000240: fc7e dabd 118f c2bd cd4e 9c3c 30d2 0ebe
00000250: 6a2f 0b3d b31e a9ba 55d6 41bd d2bc 243d
00000260: 0c3d adbd 9b33 233d b59b 6ebd fd54 e4bd
00000270: a822 113e 45cc e23c 13d3 14bc ed70 bb3d
00000280: 7cfe 743c 6769 7bbd f115 f4bd ef80 473d
00000290: 5586 273e 8396 d03d 9a70 073e 4da6 1dbe
000002a0: 5615 b1bd 795c c63d 8564 e5bd fdb2 6a3c
000002b0: e378 c53d 0017 b9b9 4559 a0bd e383 fcbd
000002c0: 1f9d eebd 4056 793c 863d eebd 9f3d d5bd
000002d0: d5bb a53c 7b4d 16be f5f3 693c f854 6fbd
000002e0: 0eb4 cebc c7b4 82bd 6e7e 243c 32c2 88bd
000002f0: e76b 11bb 220c 29be 57af c73d a341 163e
00000300: 5583 f2bd d803 013e 63be 0abe 5ae8 8abd
00000310: 740f 48bd 49c4 a4bb 0c73 bd3d 6b95 4a3e
00000320: 25f7 25bd 3617 08be 1132 a5bd 1e6f 0fbc
00000330: 6965 67bd 35a0 ac3d 4285 c23d c435 dabc
00000340: 3c19 a7bc 40fa 96bd 93d0 e23d 3b0c 03bd
00000350: b48b 16be beab 543d b999 abbd 1a4c dbbc
00000360: 32b2 753c caa6 bdbd 8afa cfbd c022 22b2
00000370: b0e8 80bd 4567 da3d b9b2 ec3d e0c9 d43c
00000380: 3cdc 5f3d 0c62 6a3c 56e4 eebd 858f 0abe
00000390: 1682 f0bd ed4e e03d 71e9 073e 0bdc 9ebd
000003a0: 2fe5 19bd c51f f2bd de2c 1ebe fdc8 05be
000003b0: c40d 35be 6154 13be 0fdd 0a3e 89ce 00be
000003c0: 9dec c2bc 64b7 0e3e 4a34 f53c dc0a 27bc
000003d0: 9b1d 043e 1aee 5f3d 6cf0 14bd be56 7d3c
000003e0: ac13 66bd bfd0 1a3e ced0 df3d 1a1c e8bd
000003f0: 7722 54b9 d632 fe3d 992e f3bc 31de 0d3c

conv_first.bias f4 [32]
-0.06385323 -0.085622795 -0.13156396 -0.07052912 0.15308401 -0.06014846 0.09178686 0.0906042
-0.11931033 0.105502404 0.14442548 -0.13624725 0.18330616 -0.09742589 0.06304765 -0.05170655
-0.071747854 -0.007537319 -0.032653652 -0.11621082 0.014215421 -0.06339105 -0.10726066 -0.05986192
0.05921532 -0.0061047114 -0.0063360576 0.039809942 0.04824708 -0.0653201 -0.013455996 0.07749917
00000000: 7bc5 82bd 015b afbd b4b8 06be 9271 90bd
00000010: 0ec2 1c3e 3b5e 76bd c0fa bb3d b28e b93d
00000020: f958 f4bd a511 d83d 46e4 133e 6684 0bbe
00000030: 9cb4 3b3e 3a87 c7bd 201f 813d 3fca 53bd
00000040: 8af0 92bd 9dfb f6bb d6bf 05bd f0ff edbd
00000050: cce7 683c 2bd3 81bd 7aab dbbd c631 75bd
00000060: c38b 723d 080a c8bb b49e cfbb c00f 233d
00000070: bb9e 453d 8bc6 85bd 8a76 5cbc e3b7 9e3d

conv_hidden.0.weight f4 [32, 32]
-0.09798566 -0.07060746 0.065197185 0.020143818 0.048606493 -0.10105978 -0.035563976 0.057113197
-0.04709683 0.056532577 -0.13745125 0.0016351023 0.15766336 -0.06370485 0.15590167 -0.1360593
-0.032189816 0.18986395 -0.012569049 0.11024021 0.08095314 0.08072424 0.04825391 0.10436442
0.17155583 0.120198 0.036429655 -0.008497384 0.14240299 -0.064888366 -0.15971695 0.14880434
0.13271157 -0.013255313 0.08707523 0.09422867 -0.0297773 -1.8539735e-14 0.06517759 0.030495556
-0.03537819 0.09710964 -0.05901921 -2.934879e-18 -2.8464063e-08 -0.0031373082 0.040676765 0.1426433
0.0051682875 -0.064100645 0.045102883 -0.13298628 0.037906844 -0.010623927 -0.043830637 -0.06353518
-0.11615111 0.060285952 0.028352292 0.109780386 -0.04024258 0.13017401 -0.08948394 0.13798542
-0.033523798 -0.07366794 -0.09383267 0.15081362 0.108508825 0.080988266 -0.053281695 0.018263979
0.09722409 0.06854491 0.02823771 -0.1784638 0.02531379 0.07223689 -0.045332078 -0.017147688
0.047321104 -0.03919134 0.06287488 0.0806911 0.17312446 -0.107897185 -0.08569052 0.13665345
0.08032829 -0.021846006 0.14368762 -0.06284237 0.08592698 -0.027470117 0.010954975 0.17554657
-0.004923777 0.087671064 0.13473277 0.14843279 0.0966681 0.007326521 -0.11099364 0.06632564
-0.13719325 -0.06874122 0.0976241 -0.07613362 0.1483424 -0.04150095 0.11717903 0.066589475
-3.4448237e-15 0.06138211 0.04905336 0.12986301 0.007984312 -0.099810496 0.11582424 -0.008102645
0.072284535 -0.02794767 0.05415274 -2.1240805e-07 -0.10810949 -0.008041522 0.09079036 -0.0038691312
0.12847681 -0.13870934 0.006908198 -0.15884446 -0.10507973 0.011509749 0.11522535 -0.12854801
0.016398327 -0.10330704 0.08697901 -0.1537272 -0.07958404 -0.12633458 0.04208801 -0.062250175
-0.08115551 -0.031042222 -0.12686974 0.14777794 0.0073813014 0.004442314 -0.021525009 0.07262792
0.0046695354 -0.10096394 -0.10033587 -0.16285145 -0.0696191 0.115684226 -0.01656131 0.08242208
-0.023963843 -0.1358547 0.05517624 -0.0019782032 -0.0016003107 -0.14238971 -0.06991903 -0.056427192
-0.06735842 0.09669827 0.03174289 -0.14088519 -0.101013936 0.14149608 0.061198797 -0.08012786
-0.011070745 -0.00046100008 0.117497005 -0.13202676 0.08481704 -0.11625397 0.107062116 0.07737693
0.13874419 -4.9908564e-21 -0.017819546 -0.062878184 -0.03114619 -0.059035815 0.1122605 0.14825915
0.15351948 0.15240026 -0.0216266 -0.053785425 0.004689828 0.18280402 0.1240642 -0.00070353743
0.13665175 0.073306166 0.1095442 -0.1212839 0.031535454 0.030462472 0.052151524 -0.05108781
-0.011080083 0.12433953 0.114961304 0.0019231384 -0.08169797 0.16187787 0.14065467 -0.10633361
0.15260641 -0.15090546 0.12754986 0.013402894 0.07324966 -0.06767701 0.17322579 -0.05513985
0.06377472 0.15875436 0.18523942 -0.09993289 0.012611573 -0.042767428 -0.026518464 0.009924716
0.19207126 0.16858952 0.060433988 0.012467527 0.03849822 -0.0615495 -0.04782979 0.016979685
-0.12678589 0.11474421 0.1464232 -0.03990097 -0.06541854 0.09359714 0.0021791826 -0.055990726
0.14708816 -0.13757488 0.14408384 0.08135082 0.04116249 -0.042634025 0.13638568 -0.1412175
00000000: b5ac c8bd a59a 90bd 1a86 853d a604 a53c
00000010: 9a17 473d 6ef8 cebd 88ab 11bd 87ef 693d
00000020: 9be8 40bd b48e 673d 05c0 0cbe ee50 d63a
00000030: 8172 213e b077 82bd b0a4 1f3e 2153 0bbe
00000040: 78d9 03bd b26b 423e 6aee 4dbc 9fc5 e13d
00000050: c3ca a53d c052 a53d e4a5 453d 03bd d53d
00000060: 55ac 2f3e 5e2a f63d 4337 153d 9d38 0bbc
00000070: 17d2 113e 31e4 84bd d78c 23be 2a60 183e
00000080: 8be5 073e d02c 59bc 8054 b23d f6fa c03d
00000090: 86ef f3bc b8fd a6a8 d47b 853d d1d1 f93c
000000a0: b9e8 10bd 6be1 c63d 21be 71bd 4c8e 58a2
000000b0: 2381 f4b2 4c9b 4dbb ae9c 263d 1611 123e
000000c0: bd5a a93b 3347 83bd cdbd 383d 8e2d 08be
000000d0: 3544 1b3d fb0f 2ebc c187 33bd bc1e 82bd
000000e0: a2e0 edbd 67ee 763d 1143 e83c 8ad4 e03d
000000f0: 67d5 24bd 564c 053e 5b43 b7bd 0d4c 0d3e
00000100: 4050 09bd 38df 96bd 582b c0bd e36e 1a3e
00000110: e039 de3d 2ddd a53d e83d 5abd 579e 953c
00000120: 6c1d c73d 4661 8c3d c552 e73c 37bf 36be
00000130: de5e cf3c eff0 933d 21ae 39bd 4f79 8cbc
00000140: c6d3 413d 1987 20bd 8cc4 803d 6041 a53d
00000150: 8a47 313e 33f9 dcbd 837e afbd e2ee 0b3e
00000160: 2983 a43d 65f6 b2bc d922 133e 80b3 80bd
00000170: 7cfa af3d 0309 e1bc 7f7c 333c 7bc2 333e
00000180: a357 a1bb e38c b33d 63f7 093e c4fe 173e
00000190: edf9 c53d 5013 f03b a250 e3bd bdd5 873d
000001a0: 637c 0cbe 32c8 8cbd 25ef c73d f2eb 9bbd
000001b0: 12e7 173e e6fc 29bd 8ffb ef3d 1060 883d
000001c0: c839 78a7 cf6b 7b3d 2dec 483d cffa 043e
000001d0: a2d0 023c 7269 ccbd 4235 ed3d f5c0 04bc
000001e0: ea09 943d 83f2 e4bc 43cf 5d3d 4812 64b4
000001f0: 8268 ddbd 97c0 03bc 4cf0 b93d 4091 7dbb
00000200: 6d8f 033e d209 0ebe 2a5e e23b 1fa8 22be
00000210: 0b34 d7bd 6393 3c3c 45fb eb3d 17a2 03be
00000220: c955 863c a492 d3bd 0d22 b23d aa6a 1dbe
00000230: f5fc a2bd da5d 01be 7a64 2c3d 0afa 7ebd
00000240: dc34 a6bd 424c febc 24ea 01be 1a53 173e
00000250: d8de f13b d590 913b 3755 b0bc f2bd 943d
00000260: e702 993b 2fc6 cebd e57c cdbd 88c2 26be
00000270: 7594 8ebd daeb ec3d 96ab 87bc e8cc a83d
00000280: d24f c4bc 7f1d 0bbe 7b00 623d bea4 01bb
00000290: 84c1 d1ba 9cce 11be b531 8fbd 3320 67bd
000002a0: 36f3 89bd be09 c63d d504 023d 3544 10be
000002b0: 65e0 cebd 59e4 103e 97ab 7a3d 131a a4bd
000002c0: 1262 35bc 62b2 f1b9 45a2 f03d 0632 07be
000002d0: 8eb4 ad3d 9016 eebd 6243 db3d cc77 9e3d
000002e0: f512 0e3e 9a8c bc9d 4cfa 91bc 47c6 80bd
000002f0: 4b26 ffbc 8acf 71bd d5e8 e53d 3fd1 173e
00000300: 3634 1d3e d00e 1c3e 442a b1bc 1b4e 5cbd
00000310: 21ad 993b fa30 3b3e 5f15 fe3d 996d 38ba
00000320: 70ee 0b3e 8b21 963d b658 e03d b263 f8bd
00000330: 522b 013d 6f8c f93c d69c 553d 7441 51bd
00000340: 3d89 35bc b9a5 fe3d d570 eb3d d111 fc3a
00000350: 4451 a7bd 50c3 253e c707 103e 70c5 d9bd
00000360: db44 1c3e f686 1abe 6e9c 023e d097 5b3c
00000370: eb03 963d 3f9a 8abd 1a62 313e 53da 61bd
00000380: 529c 823d 8190 223e 67af 3d3e 9da9 ccbd
00000390: c5a0 4e3c e62c 2fbd 403d d9bc 479b 223c
000003a0: 54ae 443e bba2 2c3e a189 773d 9944 4c3c
000003b0: 4fb0 1d3d 541b 7cbd 2be9 43bd fb18 8b3c
000003c0: 29d4 01be 03ff ea3d f7ef 153e 336f 23bd
000003d0: 28fa 85bd dbaf bf3d 9ed0 0e3b 8856 65bd
000003e0: 479e 163e 6ee0 0cbe b78a 133e 429b a63d
000003f0: 009a 283d 04a1 2ebd b0a8 0b3e 529b 10be

conv_hidden.0.bias f4 [32]
-0.09750846 -0.055290014 -0.124299824 -0.123741336 0.1490373 0.05831036 0.17052208 -0.07423891
0.08738736 0.13271417 0.14102505 0.12619868 -0.020648671 0.09527668 0.07801121 -0.12955107
-0.015802046 -0.05343282 0.106853016 -0.13026407 -0.1403245 -0.032707106 -0.008144139 -0.009599089
-0.094750956 -0.08447624 -0.10453517 0.165501 0.02136756 -0.14972797 -0.16247277 -0.046890873
00000000: 84b2 c7bd c877 62bd e890 febd 196c fdbd
00000010: 3c9d 183e d8d6 6e3d 579d 2e3e 920a 98bd
00000020: 25f8 b23d 39e6 073e df68 103e 3a3a 013e
00000030: 6727 a9bc 6c20 c33d 57c4 9f3d 09a9 04be
00000040: 4b73 81bc 5fdc 5abd c1d5 da3d f263 05be
00000050: 3ab1 0fbe e3f7 05bd ff6e 05bc 7f45 1dbc
00000060: ca0c c2bd e101 adbd 8916 d6bd 1879 293e
00000070: 050b af3c 4a52 19be 435f 26be a510 40bd

conv_out.weight f4 [32, 32]
-0.0181683 0.097153716 0.016284497 -0.01679026 0.03363153 0.02363563 0.0376117 0.009393013
-0.14354411 0.029123832 -0.14654563 0.080438234 -0.058479283 -0.079741925 0.12683228 -0.02187288
-0.059308328 -0.051690698 0.055898108 0.040167946 0.112704426 -0.04649045 0.15031 -0.16390234
0.060665093 -0.03934889 0.044290844 -0.037963364 0.16339578 -0.1701266 -0.101661555 0.04765577
0.06343176 -0.14201607 0.09959351 0.06106199 0.13213149 -0.10594878 -0.095795594 -0.10574777
0.023617724 0.046901073 -0.13492122 -0.13355067 0.14509115 0.06833825 -0.14113481 -0.088457346
-0.022137798 -0.07734553 -0.051852033 -0.06309848 -0.107725866 -0.17353038 -0.06356983 -0.1267258
0.16040044 -0.055921335 -0.05164306 -0.023034407 0.022375725 -0.10832796 0.14623019 0.05779651
-0.041178305 0.07646111 0.15872411 -0.12973237 0.04832132 -0.08486269 0.029309558 -0.06206766
-0.14931989 0.013550636 -0.094263166 0.035551786 0.14612442 0.07814381 0.12696876 0.12177747
0.03032162 0.07185494 0.15196925 -0.07989777 0.043686558 -0.1713572 -0.04504915 0.16021362
-0.0055395067 -0.055405494 0.08629979 -0.046047352 -0.06428228 -0.12332514 0.14198145 0.067362264
-0.051696308 0.10102522 -0.055671785 -0.05818493 0.17751995 0.18994893 0.0010775039 0.20260021
0.14909907 -0.062689975 0.13182545 0.032130744 0.0908448 -0.06418338 0.11919857 -0.060157903
0.15560086 0.1789008 0.12589246 -0.11184018 -0.06593079 0.036038075 -0.13807768 0.10679635
0.10981296 -0.010966496 -0.10642331 0.17691958 -0.080515385 0.062609024 -0.09159244 -0.1581904
-0.06627699 0.17509294 0.17095448 -0.0632744 0.024087315 0.06712076 0.103472374 -0.0147425
0.02266979 -0.010289637 -0.07494963 -0.0799313 0.0023028785 -0.08949095 -0.040785942 -0.055271156
-0.111829765 -0.04824527 0.05591157 -0.13733445 -0.059348628 0.04359744 0.01969322 -0.07947231
-0.015128461 -0.055298503 -0.14177716 -0.048368435 -0.1386098 -0.039557014 0.10521978 0.18275227
0.10499154 0.14888865 -0.057296734 0.10650419 0.105423816 0.14491351 0.07857146 0.052042086
0.061403785 -0.13039766 -0.13717076 -0.07057393 0.01750721 -0.027018977 0.20728618 -0.20485145
-0.14630511 0.031004772 0.037056986 -0.080783375 -0.1883353 0.082641706 -0.046138223 0.08437648
0.057950597 -0.11399537 -0.08615931 -0.109824345 0.16783635 0.089391544 0.05925434 -0.14194073
0.065804705 -0.040309343 -0.16865818 0.033750914 -0.12528615 0.09801421 -0.09968024 -0.0031217034
-0.19662908 0.10317723 -0.10458443 -0.12610076 0.18325067 0.031550616 0.14763339 0.13030064
0.14126043 -0.19025382 0.039171025 0.010887725 -0.10567565 0.087111525 0.08007543 -0.08638344
-0.14519912 0.06874624 -0.07612369 0.07574097 0.16139537 0.073032714 0.15272105 -0.05135543
0.1250979 -0.14881946 0.04117597 0.026423166 0.063634835 -0.06944438 0.035088576 -0.07304277
0.07643969 0.02714606 -0.03576018 -0.016800262 0.04403408 0.123097524 0.08933895 -0.13185857
0.01291414 0.13732032 0.01868473 0.098772995 -0.019655328 -0.016509118 -0.077133715 -0.09208884
0.06721824 0.058194157 -0.10499601 -0.0018893896 -0.08883033 -0.041377842 -0.084849834 -0.0007353548
00000000: b0d5 94bc 87f8 c63d 1167 853c ba8b 89bc
00000010: 37c1 093d 829f c13c ba0e 1a3d 27e5 193c
00000020: 3afd 12be 1a95 ee3c 0f10 16be cdbc a43d
00000030: f987 6fbd bc4f a3bd 52e0 013e c12e b3bc
00000040: 4aed 72bd a0b9 53bd 6af5 643d 2587 243d
00000050: 94d1 e63d c56c 3ebd ddea 193e 04d6 27be
00000060: f67b 783d 4d2c 21bd 516a 353d 797f 1bbd
00000070: 3951 273e ab35 2ebe ef33 d0bd b232 433d
00000080: 83e8 813d a96c 11be aff7 cb3d 231c 7a3d
00000090: 7a4d 073e adfb d8bd 7b30 c4bd 4992 d8bd
000000a0: f579 c13c 571b 403d ca28 0abe 82c1 08be
000000b0: c692 143e edf4 8b3d a585 10be 2029 b5bd
000000c0: 545a b5bc 5567 9ebd cc62 54bd c739 81bd
000000d0: 619f dcbd f3b1 31be e630 82bd 68c4 01be
000000e0: 0340 243e c50d 65bd ac87 53bd a7b2 bcbc
000000f0: 4c4d b73c 0ddb ddbd 5ebd 153e 09bc 6c3d
00000100: 95aa 28bd a497 9c3d 9388 223e 90d8 04be
00000110: 94ec 453d 7dcc adbd 991a f03c a93a 7ebd
00000120: 50e7 18be 7d03 5e3c 0c0d c1bd c09e 113d
00000130: a4a1 153e dd09 a03d 1904 023e 7766 f93d
00000140: 0c65 f83c af28 933d d49d 1b3e 71a1 a3bd
00000150: adf0 323d 4378 2fbe 7585 38bd 0a0f 243e
00000160: c084 b5bb dff0 62bd f2bd b03d 269c 3cbd
00000170: 6ea6 83bd e491 fcbd 9663 113e 3af5 893d
00000180: 82bf 53bd 4fe6 ce3d 1908 64bd 5253 6ebd
00000190: cac7 353e f981 423e 083b 8d3a 6e76 4f3e
000001a0: 6dad 183e 9a63 80bd 40fd 063e 879b 033d
000001b0: d70c ba3d 9372 83bd 611e f43d 2268 76bd
000001c0: d555 1f3e c531 373e f4e9 003e 770c e5bd
000001d0: b906 87bd a99c 133d 3c64 0dbe 0bb8 da3d
000001e0: 9ee5 e03d d1ac 33bc 77f4 d9bd 682a 353e
000001f0: 40e5 a4bd 2939 803d d194 bbbd aafc 21be
00000200: 3bbc 87bd 904b 333e b10e 2f3e 0296 81bd
00000210: c352 c53c 9c76 893d 53e9 d33d 878a 71bc
00000220: ffb5 b93c de95 28bc 317f 99bd 05b3 a3bd
00000230: e4eb 163b 0847 b7bd 290f 27bd 0264 62bd
00000240: 0107 e5bd d59c 45bd 8803 653d 67a1 0cbe
00000250: 8c17 73bd 3b93 323d ad53 a13c 61c2 a2bd
00000260: 5ddd 77bc af80 62bd 082e 11be fb1d 46bd
00000270: baef 0dbe 8906 22bd 787d d73d 6923 3b3e
00000280: ce05 d73d 4476 183e fbaf 6abd de1e da3d
00000290: 71e8 d73d 3564 143e 13ea a03d 152a 553d
000002a0: 8982 7b3d f786 05be 7e76 0cbe 1189 90bd
000002b0: 486b 8f3c e756 ddbc d442 543e 94c4 51be
000002c0: 02d1 15be b8fd fd3c 11c9 173d c171 a5bd
000002d0: f8da 40be 0e40 a93d 6ffb 3cbd 93cd ac3d
000002e0: 9b5d 6d3d 6876 e9bd 4b74 b0bd 96eb e0bd
000002f0: 4bdd 2b3e ea12 b73d aeb4 723d e958 11be
00000300: 9ec4 863d 691b 25bd bbb4 2cbe 663e 0a3d
00000310: 034b 00be adbb c83d 2725 ccbd 7e95 4cbb
00000320: 2259 49be 954e d33d 5d30 d6bd 8f20 01be
00000330: 10a6 3b3e 383b 013d 352d 173e 886d 053e
00000340: 93a6 103e e6d1 42be cc71 203d 6e62 323c
00000350: 7a6c d8bd 8767 b23d 96fe a33d cde9 b0bd
00000360: 14af 14be d4ca 8c3d bde6 9bbd 151e 9b3d
00000370: d444 253e 2d92 953d e862 1c3e 125a 52bd
00000380: aa19 003e 2164 18be 22a8 283d 6575 d83c
00000390: fb52 823d db38 8ebd 0ab9 0f3d 7397 95bd
000003a0: 6a8c 9c3d 6a61 de3c 4479 12bd b4a0 89bc
000003b0: 145d 343d 8e1a fc3d 57f7 b63d ef05 07be
000003c0: d495 533c b39d 0c3e b810 993c 7f49 ca3d
000003d0: 3604 a1bc 213e 87bc 48f8 9dbd 1399 bcbd
000003e0: b7a9 893d ff5c 6e3d 2608 d7bd 65a5 f7ba
000003f0: adec b5bd d07b 29bd c0c5 adbd d3c4 40ba

conv_out.bias f4 [32]
-0.046901733 -0.13076974 0.03640745 0.10152262 0.007568777 0.010958859 -0.041035973 -0.08797723
-0.07664663 -0.016477874 0.104298644 -0.039419763 0.08777469 -0.042785782 -0.0982775 0.10104604
-0.06258525 0.037541896 -0.105693504 0.08976352 0.105755575 -0.07211419 -0.046657458 -0.01238388
-0.012395902 0.14410527 -0.034774065 0.047935735 -0.11776043 0.13245709 -0.05683447 -0.14045791
00000000: 081c 40bd 81e8 05be fa1f 153d 17eb cf3d
00000010: 8103 f83b c98c 333c 5615 28bd 682d b4bd
00000020: e9f8 9cbd 9bfc 86bc 879a d53d 9e76 21bd
00000030: 37c3 b33d 2540 2fbd b745 c9bd 3af1 ce3d
00000040: b22c 80bd 88c5 193d d675 d8bd f0d5 b73d
00000050: 6196 d83d 9bb0 93bd e41b 3fbd c2e5 4abc
00000060: 2e18 4bbc 5590 133e 406f 0ebd 4358 443d
00000070: 612c f1bd d5a2 073e 43cb 68bd 33d4 0fbe
