checkpoint.pt (torch_old, 14386 bytes, 8 tensors)

linear_pre.weight f4 [32, 1]
00000000: d8cb 173f 2624 2abf 6aed 3c3f c587 703e
00000010: dca6 48bf d1d7 1cbf 07e4 0bbf b8c6 2f3f
00000020: 4d46 f43e 57d3 11bf f44c 143f 666b f6be
00000030: b887 cfbe 8780 303f aac8 243f 1a03 ffbe
00000040: df14 0fbf 8425 34bf 602d 49bf 3d0c edbe
00000050: 99c6 273f 02ba 8c3e 91b4 dcbe c61b 773f
00000060: ac81 84be 07e0 493e dc37 193f 8db8 b33d
00000070: 6d07 373f 8d0f 79bf d112 fdbe a399 e5bd
0.59295416 -0.6646141 0.73799765 0.23489292 -0.7837961 -0.6126681 -0.5464482 0.68662596
0.47709885 -0.56963104 0.5792992 -0.48128814 -0.40533233 0.6894612 0.6436869 -0.49807054
-0.5589122 -0.70369744 -0.7858486 -0.462984 0.6553741 0.27485663 -0.4310651 0.96526754
-0.25880182 0.19714366 0.5985086 0.08775435 0.71495706 -0.97289354 -0.49428418 -0.112109445

linear_pre.bias f4 [32]
00000000: b77a 493e d382 4b3e 4617 573f ebaf 523f
00000010: 4ed5 20bf d206 17be 9dd7 f3bd efbc 8dbe
00000020: 3671 6fbf 7249 f5be 2422 0a3f 588b 6e3f
00000030: 2ea5 51bf d8a2 6fbf 66be 023f b82b 653b
00000040: dbaa 663e 77f1 5fbf aa9c 0ebe bc7b e33c
00000050: 878d 763f 03e0 2a3e 0326 1d3f cde9 09bf
00000060: 0319 bdbe 8eff 08bf 57e0 583f 9066 693f
00000070: 9603 b0be de5f 3e3f ccfc 6b3e b592 68bf
0.19675718 0.19874124 0.8401989 0.8229968 -0.6282548 -0.14748695 -0.11906359 -0.27683207
-0.9353212 -0.47907597 0.53958344 0.9318137 -0.8189267 -0.93607855 0.51071775 0.0034968685
0.22526114 -0.8747782 -0.1392695 0.027768962 0.96309704 0.16687016 0.61386126 -0.53872377
-0.36933145 -0.53514946 0.84717315 0.9117212 -0.34377736 0.7436503 0.23045653 -0.9084886

conv_first.weight f4 [32, 32]
00000000: 84ac 97be ff7f c9bc e8c3 99b8 5fc6 253e
00000010: 63ab 723e f181 d0bd 2aba 30be 27d4 bc3d
00000020: da1e 553e a9bb d6bc b505 763e aed8 293e
00000030: 36a4 84be 7e78 073e 2e80 5dbe 345b 723e
00000040: a9ba 2cbe 6797 97bc 1875 56be 8741 32be
00000050: 0be5 a03d ef09 0bbc 8785 76bd 5f49 e93d
00000060: 0419 efbd e463 cb3d df92 673e 828d 8dbd
00000070: 96f4 a2bd 579c eb3d de9e 3cbe 15c7 863e
00000080: 868e 473e 6f53 92be a2c8 793e 72db 46be
00000090: 53b8 8fbe 81a4 96be 7b41 fb3d dc86 203e
000000a0: d8d7 423e aeb2 5fbe e65c 95be f3ae 88be
000000b0: e649 6f3e cbf5 993e 5aae 39be 83aa 053e
000000c0: 048b 9cbe be09 74be 4284 833e 0404 4a3e
000000d0: 865d 1b3c 3706 84be 106d 563e 61f1 86be
000000e0: 6fc9 203d 83b8 3bbe 5da3 30be e09d 11be
000000f0: fe98 0bbe 44e4 453e 4445 89be ad36 36be
00000100: 72b1 3bbe 0f7d 83be 52f6 273e 85b4 0ebe
00000110: 5b76 433e 04f8 063e 8a43 74be b5bf 93be
00000120: aa28 243d 7b5b 553d c2a5 8c3e 409f 083e
00000130: 5d10 383e ad3a 61be bcda ddbd be7c 0b3d
00000140: d460 293e fa70 84be 5017 0a3e 6cd7 2e3d
00000150: c469 84be 5510 953e 4020 813e effd 813e
00000160: 3afd 203e 2ffd ec3d 8bf5 873e e760 143e
00000170: 33ba 5a3e a3bb 98bc 2af2 1dbe a231 0abe
00000180: a150 9d3d d723 2a3b f655 bb3d 194d 24be
00000190: 6fbd 80b9 b590 0ebd 8852 88be 24d0 203d
000001a0: f095 a5bc 92f2 8abe 2b3d 0c3d 37c5 8c3e
000001b0: 7e99 8f3b 2eaa e1bd 9a43 97bd 60a1 68be
000001c0: a14d 9a3e 277a 3b3e 5996 b3bc 65f9 3a3d
000001d0: 6977 40bd 29c9 9cbe b017 47bd 90a2 1b3d
000001e0: c8b4 003d ade5 783e 3bbc 133e 28ea 39bd
000001f0: 3080 2fbd ae5f e23d 2393 b1bd 55b3 2dbe
00000200: 2a97 3ebc daf7 273e 08ef 833e 6e11 053e
00000210: 8198 cabd f1de cebd 4a11 fcbd 0723 4c3e
00000220: e796 5abe 0758 253e 7e08 8ebe ef9d d839
00000230: 3055 913e b4ba f73d 0d87 11be 145a 173e
00000240: 4352 55be 8c8d 3c3e e322 6ebc 9960 5a3e
00000250: 60d2 883e 0af1 8ebe fb46 80bd 53f1 d1bd
00000260: 6ab5 0bb9 2bf8 903d 6d10 76be 434d 54be
00000270: 365f 0b3c 12d3 903e 2820 3fbd fffa 9cb8
00000280: c487 38be dd53 69be 1e22 8abe 18de 923e
00000290: 3d08 3cbc 4051 fb3c bc61 fb3c 94ff 3d3e
000002a0: 67ed 553d d0de e6bd 1b70 4a3e bccb 8dbe
000002b0: e86e 663c b50a 0ebd 860b 503e 9936 d2bd
000002c0: dd69 c33d ae0c 49bd a0a3 223e 6fed b93d
000002d0: 7880 793e 74fc 343d 455c f23d 16ad 4c3e
000002e0: 58cb 823d 8a7d cbbd 4b84 c73d f160 99bd
000002f0: 0894 c4bd e936 9b3d 7c68 e2bd 8275 6dbe
00000300: 541a ee3c 9370 623e ae9d 8a3e 6d5c 883d
00000310: 5d9a 8bbd a877 fe3d b0cb f5bd 81f5 943e
00000320: 22e0 123e 9810 1bbe 9c41 7a3e 19dc 18be
00000330: ab73 93be f567 00be f828 bc3b 7573 4abe
00000340: 38fd 1a3c e8b8 a1bd c139 1ebe 10f9 723e
00000350: 8773 85be 8d1f d6bd ebbc 313c 0e15 033e
00000360: 6d9d b63d dd5a 5dbe d55c 893d 7614 013e
00000370: 7b2e 8fbe 5c65 4f3d df92 813d 0217 cebc
00000380: 1dd9 3bbe 42c6 6d3e 4312 a0bd eb48 88be
00000390: 6ba4 29be 6b59 903e 36bd 4f3e 2f26 95be
000003a0: f99e 743d 2aba d33d cf1b c3bd c30a 91be
000003b0: 9556 16be edc0 613e c4ea 2abe 74c9 81be
000003c0: 29e7 4bbd a24a 86be 67f8 e0bd 949a 94be
000003d0: b0fe b13d fe70 ba3d a214 e63d f53c 88be
000003e0: 6bdd 903d 9c1a 4e3e 882b 7c3e aa3e 97be
000003f0: 01d2 d33d 2f47 35be bda1 40be 9fdc d1bd
-0.29623806 -0.024597166 -7.332099e-05 0.16188954 0.23698191 -0.10181034 -0.17258516 0.09220152
0.2081255 -0.02621253 0.24025615 0.16586563 -0.25906533 0.13229558 -0.21630928 0.23667604
-0.1686808 -0.018504811 -0.20943105 -0.17407809 0.078561865 -0.008486255 -0.060185935 0.113909476
-0.11674693 0.09931162 0.2261462 -0.06911756 -0.07956807 0.11504429 -0.18419978 0.26323763
0.19487962 -0.2857928 0.24392942 -0.19419649 -0.28070316 -0.29422382 0.12268349 0.15676445
0.1902765 -0.21845505 -0.29172438 -0.26695976 0.23368034 0.30070338 -0.18132916 0.13053326
-0.3057481 -0.23831841 0.25686842 0.19728094 0.009482747 -0.25785992 0.20940042 -0.26356032
0.039254602 -0.18332104 -0.17249818 -0.14220381 -0.1363258 0.19325358 -0.26810658 -0.17794295
-0.18329409 -0.2568135 0.16402557 -0.1393605 0.19088118 0.13180548 -0.23853889 -0.28857198
0.040077843 0.052089196 0.27470213 0.13341999 0.17974992 -0.2199504 -0.10832736 0.03405451
0.16540843 -0.25867444 0.13485456 0.04268591 -0.25861943 0.29114023 0.25219917 0.25389048
0.15721598 0.115717284 0.26554522 0.1449009 0.21360092 -0.01864416 -0.1542441 -0.13495496
0.07681394 0.0025961304 0.09147255 -0.16045035 -0.00024555202 -0.034805972 -0.26625466 0.039261
-0.020213097 -0.2713819 0.03423802 0.27494213 0.0043823114 -0.11018787 -0.07385941 -0.2271781
0.3013735 0.18308316 -0.021922277 0.045647997 -0.04698888 -0.30622223 -0.048606575 0.03799683
0.031422406 0.24306364 0.14427273 -0.045389324 -0.04284686 0.11053406 -0.08670642 -0.16962941
-0.01163272 0.16403142 0.25768304 0.1299493 -0.09892369 -0.101011164 -0.12307985 0.19935237
-0.21346627 0.16146861 -0.27740854 0.000413164 0.28385305 0.12096158 -0.14211674 0.14780456
-0.20832162 0.18413371 -0.014534685 0.21325912 0.26723003 -0.27918273 -0.062635385 -0.10251107
-0.00013323655 0.07078584 -0.24029703 -0.20732598 0.008506587 0.28286034 -0.046661526 -7.485411e-05
-0.1802054 -0.22785898 -0.26979154 0.2868507 -0.0114765735 0.030678391 0.030686252 0.18554527
0.052228358 -0.11272967 0.19769327 -0.276945 0.014064528 -0.03467818 0.20316896 -0.1026432
0.09541676 -0.049084358 0.1588273 0.0907849 0.24365413 0.04418607 0.11834005 0.19987902
0.06386441 -0.09936054 0.0974203 -0.07489193 -0.09598547 0.07578833 -0.11055085 -0.23189357
0.029065289 0.22113256 0.27073425 0.06658254 -0.06816552 0.12425166 -0.12001741 0.29093555
0.14343312 -0.15143049 0.2443909 -0.1492771 -0.28799185 -0.12539656 0.0057421885 -0.19770606
0.009459786 -0.07896596 -0.15451719 0.23727822 -0.26064703 -0.104552366 0.010848264 0.12801
0.08916745 -0.21616693 0.067071594 0.12605461 -0.2796515 0.050633773 0.063268416 -0.025157455
-0.18344541 0.2322016 -0.07815983 -0.26618132 -0.16566627 0.2819322 0.20287022 -0.29130694
0.05972192 0.10338242 -0.095267884 -0.28328523 -0.14681466 0.22046252 -0.16691118 -0.2534901
-0.049781 -0.26228815 -0.10984879 -0.29024184 0.08691156 0.09103583 0.11234404 -0.26609007
0.07073482 0.20127338 0.24625981 -0.29539996 0.103427894 -0.17702936 -0.18811698 -0.10247158

conv_first.bias f4 [32]
00000000: e115 9fbb 0000 0000 0000 0000 0000 0000
00000010: f24b 9cbb a6a8 913b 0000 0000 0000 0000
00000020: 0000 0000 fede 0bbb 9ca0 8fbb dba2 943b
00000030: 0000 0000 0000 0000 0000 0000 0000 0000
00000040: 03e9 453b 0000 0000 0000 0000 4951 9cbb
00000050: 0000 0000 73f5 5ebb 0000 0000 a786 67bb
00000060: 0000 0000 7f12 993b 1c51 0cbb 644d 983b
00000070: 3d51 9bbb 0000 0000 0000 0000 0000 0000
-0.004854903 0.0 0.0 0.0 -0.0047697956 0.0044451533 0.0 0.0
0.0 -0.002134263 -0.00438316 0.0045360154 0.0 0.0 0.0 0.0
0.00301987 0.0 0.0 -0.004770432 0.0 -0.003402081 0.0 -0.0035328062
0.0 0.0046713944 -0.002141065 0.0046478976 -0.004739909 0.0 0.0 0.0

conv_hidden.0.weight f4 [32, 32]
00000000: bb2d cdbd 4ff0 bfbd 90a7 033d 9407 74be
00000010: 6fab 53be 988f 813e bb24 99be d153 c3bd
00000020: 8e10 afbd 1f36 3cbe a6b7 95bd d213 eb3d
00000030: 561e e73b 8897 02be 12df 263e 9b7d 5c3d
00000040: 6a5e 65be fcf8 f53d 41a6 0ebe 4403 453d
00000050: 5ffe 973d a019 7fbe 7bd2 8e3e 7080 60be
00000060: 864c 6a3e c411 7f3e ed52 2e3e 38d1 893e
00000070: b6eb 1abe 1fdb 08be 1367 55be da55 413e
00000080: c800 c8bc 3f23 3e3e 1d80 7c3e a5ac 29be
00000090: b61a 95be 1a8a 953e 4705 85bb c338 fb3d
000000a0: ade0 b7bd 9fac 913e 0903 71be d10f 8b3d
000000b0: 8196 703e 137e 863e ebcd 433d ab91 70bc
000000c0: 7638 3ebe ee3a 823e de81 083e 42e6 6d3e
000000d0: 80c2 923c e60d 63be 886d 1bbe ff11 9abe
000000e0: 6714 193e ff8a f2bd b689 933d e934 a23d
000000f0: caf1 4c3b dbd2 78be 804e ec3d 1a90 1c3d
00000100: 15c6 16be 8d16 14be 5bfb ac3d f767 fe3d
00000110: 7044 c5bd bd43 313e 874f f13d e3c6 61be
00000120: 0692 883e 61a1 9b3c f9c0 0bbe e691 8dbe
00000130: 3a03 3d3d 8cc7 493e 4101 fc3d d095 2ebe
00000140: df67 16be 5387 213d 7f1e 0abe ee4a 203e
00000150: f63c 6f3e 3360 2cbe 537b 80bd dfa6 2cbe
00000160: 7a27 8ebe 988b c43c b4cb ec3c fea8 6a3e
00000170: 4cd5 c23d df11 8fbe 6f97 213e ed0a 90be
00000180: 1b4e 953e 3ac4 a13d 66b8 c33d b9b5 613e
00000190: 07cc 813e 77ba 5f3d c093 6438 b028 8ebe
000001a0: 1701 433e 0450 cabc e6d0 453d bb3e 17be
000001b0: 9de8 823e 1e18 da3d e6c8 6d3e e8c8 443e
000001c0: d89b 53be c1cb 85be ff87 a7bd c9ef 18be
000001d0: be3f 25be 7bbb 7bbe e1b6 45be 037c 83be
000001e0: db33 683e cfeb 24be 5723 0ebe afa3 95bc
000001f0: 5393 77be 4e1c 883d bd4d 103e bc32 b73d
00000200: ea0b 5a3c a977 8fbe 5dab 263e 4253 823e
00000210: ddda 5abd 2d08 4ebe 2469 8bbe a72b 5ebe
00000220: 3719 86be bc95 97be c52e 083d d16b 1b3d
00000230: 0087 18bd 8c73 533e 9ab1 283e f38d e63c
00000240: ec61 30be c627 51bd fd81 a0bc 9b62 52be
00000250: 0ab0 e7bd 760a 59be c843 fabc 80ca d33c
00000260: cf9d 953e 816b 64bd af2d bdbc 917b f13d
00000270: c6ae 283d 0556 933e 9255 8ebe fad5 743e
00000280: 60c8 4ebc be67 d23d 81a8 963e fe35 633e
00000290: 89ee bdbd 1eaa 56be 3216 863e d05a 2a3e
000002a0: ea1b 2cbd 5127 dbbc cf8a 643d 7c23 8abe
000002b0: a3b5 71be ab8c a6bd 3226 503e cc55 6c3e
000002c0: 5ebb 653e 4289 553e 1d6d 9bbe 2032 8a3e
000002d0: 1521 87bd 9c87 4b3e 9a9f 80be 866d a13d
000002e0: 8ced 37bd 56e0 26be 4978 3bbe 517f 6fbc
000002f0: 4472 9a3d 1873 31be 1499 1bbe 77cf aa3d
00000300: f408 463e a545 e53b a0c5 04be f779 96be
00000310: 6949 2cbe ca8e 573d b7ea d53d db4c 4bbe
00000320: 08c2 dabd 2435 2e3d 7b0f 4b3e a033 03bd
00000330: fd87 873e a741 b03d 3566 84be 5e99 313e
00000340: ec76 953c 8238 d93c 9718 34bc cb54 083e
00000350: 354f 1a3e 8a1b 10bd d4bb 353e efbd 1f3e
00000360: 9d9a 89be 1170 073d b3f4 9b3c 50b7 75be
00000370: d73f 39be c536 54be 10db 75be 67ea 143e
00000380: f03e e63d 4f20 953e 9522 bf3c f772 7f39
00000390: ad35 db3d 10bc 9ebd 7f09 933e 45ef 8d3e
000003a0: 310e cebd 60b2 bdbc 24c6 afbd 0c33 6c3d
000003b0: 2e93 c33d 6fe6 2a3e b670 833e 9fe0 b93a
000003c0: 7ae5 af3d c91a 8f3e c127 403d f8ff 03be
000003d0: 9d2d 383e 3fab 423d bd9b 913e 1004 cdbd
000003e0: 61d8 77be 64dc d93d 49ce 1fbe 1098 923e
000003f0: d206 aabd 134d 033e 7492 8cbc d77d 98bd
-0.10018488 -0.09372007 0.032142222 -0.23831016 -0.20670865 0.25304866 -0.29910836 -0.09537471
-0.085480794 -0.1838002 -0.07310419 0.1147839 0.007053177 -0.12753117 0.16296032 0.053830724
-0.22399297 0.120103806 -0.13930608 0.048098817 0.07421564 -0.24912119 0.2789496 -0.21923995
0.22880754 0.24909121 0.17023821 0.26917434 -0.15128979 -0.13364838 -0.20840101 0.18880406
-0.024414435 0.18568133 0.24658246 -0.16569765 -0.2912194 0.29206926 -0.004059467 0.12266686
-0.089784004 0.28452012 -0.23536314 0.06790126 0.23494913 0.26268062 0.0478038 -0.014683167
-0.18576226 0.25435585 0.1333079 0.23232368 0.01791501 -0.2217327 -0.15178502 -0.30091855
0.14949189 -0.11842918 0.07204001 0.07920248 0.0031272047 -0.24299185 0.1153841 0.038223363
-0.14724 -0.14461727 0.0844638 0.124221735 -0.09632194 0.17310996 0.11782747 -0.22048526
0.26673907 0.01899785 -0.13647832 -0.27650374 0.046145655 0.19705027 0.12304927 -0.17049336
-0.14688061 0.039435696 -0.13488196 0.15653583 0.23363099 -0.16833572 -0.06273522 -0.16860531
-0.27764493 0.023992345 0.028905727 0.22916028 0.095133394 -0.27943322 0.15780424 -0.28133336
0.29161152 0.07898755 0.095566556 0.22041978 0.25350973 0.054621186 5.449704e-05 -0.27765417
0.19043384 -0.024696358 0.048294924 -0.14770024 0.25568095 0.10649131 0.23221168 0.19217265
-0.20664918 -0.26132014 -0.08180236 -0.14935221 -0.16137597 -0.24583237 -0.19308044 -0.2568055
0.22676031 -0.16105579 -0.13880669 -0.018266527 -0.24177293 0.06646024 0.14092155 0.08945224
0.013308505 -0.2802098 0.16276307 0.25454146 -0.05343138 -0.20120306 -0.27228653 -0.2169634
-0.26191112 -0.29606426 0.033247728 0.03794462 -0.03723812 0.20649546 0.16474 0.028143859
-0.17224854 -0.05106332 -0.019593233 -0.20545428 -0.11312874 -0.21195397 -0.030549899 0.025853395
0.2922196 -0.055766586 -0.023093073 0.117911465 0.041182302 0.28776565 -0.2779966 0.2390975
-0.012621015 0.102736935 0.29425433 0.22188565 -0.092740126 -0.20963332 0.2618881 0.16636205
-0.04201881 -0.026752146 0.05579644 -0.26980197 -0.23604445 -0.08132299 0.2032707 0.23079604
0.22434756 0.20853141 -0.30356684 0.26991367 -0.06598107 0.1987595 -0.25121766 0.07882218
-0.044904277 -0.16296515 -0.18307604 -0.014617757 0.07541326 -0.17329061 -0.15195113 0.08340352
0.19339353 0.0069968277 -0.12966013 -0.29389927 -0.16824879 0.05262641 0.10445159 -0.19853537
-0.1068154 0.042531148 0.19830124 -0.032031655 0.26470938 0.08606272 -0.25859228 0.17343661
0.018245183 0.026516203 -0.010992191 0.13313596 0.15069278 -0.035182513 0.17747432 0.15599798
-0.26875773 0.03306586 0.01903758 -0.2399571 -0.18090759 -0.20724018 -0.24009347 0.14542542
0.11242473 0.29126212 0.02333192 0.00024361523 0.10703597 -0.07750714 0.28718182 0.2772161
-0.100613005 -0.023156345 -0.08582714 0.05766587 0.09549557 0.16689466 0.2567193 0.0014181322
0.08588691 0.27950123 0.046912912 -0.12890613 0.1798615 0.047526594 0.2843913 -0.100105405
-0.24203636 0.10637739 -0.15606035 0.2863164 -0.08302082 0.1282237 -0.017159678 -0.07445877

conv_hidden.0.bias f4 [32]
00000000: 45c6 f2ba 6a76 993b 91b1 90bb deae 313b
00000010: a2b8 10bb 2ee1 94bb 8f50 9d3b 4f41 d13a
00000020: 175b 873b a6df 0e3b 2d98 0a3b 20c5 863b
00000030: cf0e 0b3a fb59 743b 92c2 9ebb 53d0 5c3b
00000040: a972 973b 120c 9d3b b43c 83bb 9a5b 803b
00000050: 73b2 823b 5b89 a23b c97c 8a3b 4e50 9bbb
00000060: c413 5abb e0a7 97bb d40f 9bbb 3349 b83a
00000070: fc6c 90bb 5809 9c3b 1648 1b3b dd0d 533b
-0.0018522224 0.0046833055 -0.004415699 0.0027112286 -0.0022082706 -0.004543445 0.004800863 0.0015964898
0.004130732 0.0021800785 0.0021147833 0.0041128546 0.0005304636 0.0037285078 -0.004844972 0.0033693507
0.004621823 0.0047926987 -0.004005039 0.0039171698 0.003988558 0.0049602217 0.0042263013 -0.0047397977
-0.0033275941 -0.0046281666 -0.0047321115 0.0014059901 -0.004407523 0.004761856 0.002369409 0.0032204308

conv_out.weight f4 [32, 32]
00000000: 225a 90be e5f1 fa3d 51e6 393e 1a34 623b
00000010: a30b 21be 1250 e5bd 6e27 0ebd 3ab9 adbb
00000020: 39d1 773e b205 0e3e d69b 173d 08ea 443c
00000030: 8df6 84bd 15fe 6f3e 9166 84be ba5d 2bbe
00000040: a1a4 343e fab0 d7bd aecd 8bbe 350c 36be
00000050: 9448 813e dd94 4f3d 3e3e f43c 3039 a1bd
00000060: 3d0f 98be f509 053d 5480 873e c8e6 f33d
00000070: 5e81 113e 8c3d 893e 0888 313e 659e 8e3d
00000080: 1cce ddbd 3080 243d 5e0a f13d 6ae7 61be
00000090: 082a 9abd 0096 933d fa0e 803e c719 6e3d
000000a0: 6cd7 80be 3597 3dbe 730b 343c 1d4f 3e3c
000000b0: d7fc da3d 37a1 9bbe eb8f 963e ccb9 58be
000000c0: 0076 3a3e 32a8 f2ba 059e e03d 474c 703a
000000d0: 8a58 80be 9812 043d 8a52 23be cb07 9abe
000000e0: f198 9a3d fd70 2c3d 0804 36be 1877 893d
000000f0: f2cb 31be 8a4f 243e 4b91 663d f919 903e
00000100: ab62 2fbd ed03 9b3e 727a 773d 0ade 86be
00000110: bb11 913e 6275 3dbd 9fb4 78bd c607 cb3d
00000120: 41bc 243e d811 e43d 1e6e 1d3e f480 dd3d
00000130: b48d 8f3e 8c9e 823e b933 8dbe 43c3 dc3d
00000140: 53c8 b43c 154e 633e a22a 20be 04e0 52be
00000150: 004a e33d de1a a83d 2fe9 30be 9a5a 88bd
00000160: b17d 5d3c 7849 8c3e 56ce 083e ae19 bdbd
00000170: 7f69 38be ec08 abbd c7c0 87bd 3733 263e
00000180: 3202 a63d 5b9c 7dbd 8d0a f43d 6655 71be
00000190: fd9b 9b3e d5a0 35be 4f93 31bc daa3 33bd
000001a0: b782 15be 004a 01be 7c2e b0bd 44f6 113e
000001b0: 4b8a 4ebe ea42 a5bc 3465 0fbe 20f5 f83d
000001c0: cb94 19bb 50d1 ca3d 1a71 fabd 7738 81be
000001d0: 2da2 f83c fb9c 943e 3306 f6bd 1534 85be
000001e0: 5b0e 3fbe 9b1e c5bd 6721 7a3e baac 86be
000001f0: f836 dcbd 559d 6cbe 896f 89be ba38 15be
00000200: 1f01 83be 34d0 8b3e 1198 61be d662 f5bc
00000210: a8b4 103d af6b 4b3e d486 2ebe 8bd3 49be
00000220: 9a6e 5fbe 5fab 0c3e ad6a e03d a9de 90be
00000230: a4fb a83d d6a6 833d 0f5a 963e 9aca 953e
00000240: d8d3 83be b62c 6a3e 5526 94be a308 edbd
00000250: 57b2 af3d 1501 e43a bd6b e6bd c714 8ebd
00000260: 076f bdbc 6671 f7bd 4fcb 3a3d 7947 583e
00000270: 8c98 85be 56fb 99be 78d0 003e abb3 54bd
00000280: e14a dabd 01ad 913e 85ef 593e 0fe5 403e
00000290: af6b 973e 514a 223d 8e3b d1bd 67b1 84bd
000002a0: 69d1 0f3d 6354 973e 3419 933e 7269 e6bd
000002b0: 67a1 983e 146c 28be 4d6c 933e d8e5 99be
000002c0: 462a 0c3e 3870 143e c085 853e b257 f6bc
000002d0: 3020 913d 1b5e 4cbe 3e92 1cbe bb7b f43d
000002e0: 185e ee3d 1522 123e ff65 3c3e dff6 88be
000002f0: d04c 6b3b db08 60be c45c 303e 6c43 4abc
00000300: c704 123e ae79 cdbd a529 29bd 86cb 1f3e
00000310: 2177 143d 7bd6 5e3e 1614 8cbe 756d 713d
00000320: 569a 07be e363 c0bd 3f9b c73d ccd2 a13d
00000330: 5b2b 883b c302 3e3e 19f8 593e 4192 333e
00000340: b529 77be 63a0 953e e825 793e 40cb 5d3e
00000350: 0b04 98bc e9ae 76bd f125 933b 7063 13bc
00000360: e87c 323e e3ed 113d a21c dc3d 4193 1dbe
00000370: 60d8 7fbe d935 593e 17cc f1bd dfb1 b7bc
00000380: 7f9d 863b 7fca 633e 79f5 b43d c3ac 393e
00000390: 44a6 853e 9c46 3b3b 47a7 5bbe 3d1d 943e
000003a0: c8b4 673e d6ca 3b3d 2fa1 48be 6498 923e
000003b0: 55ff a1bd eb6f 7cbe d9af 783e 6dd0 90be
000003c0: 7ff0 37be 9a74 0f3e 18da 573e 5d3d 99be
000003d0: a43d 173e c29e 47be 8436 b63d 4e57 c13d
000003e0: 8a2b 123d 58fc 143e 4b7d 2c3e 1708 cb3d
000003f0: 4b80 11be c195 00be abed 4e3d 4d5e c7bd
-0.28193766 0.12253169 0.18154265 0.0034515918 -0.15727095 -0.11196913 -0.03470557 -0.0053016217
0.24200906 0.1386936 0.03701385 0.012018688 -0.06492338 0.23436768 -0.25859502 -0.16734973
0.17640926 -0.105318025 -0.2730536 -0.17778094 0.25250685 0.050679076 0.029814836 -0.07872236
-0.29699126 0.0324802 0.26465094 0.119092524 0.14209506 0.2680477 0.17337048 0.06963805
-0.10830328 0.04016131 0.117695555 -0.22060934 -0.07527548 0.072063446 0.25011426 0.058130052
-0.25164354 -0.18514712 0.010989058 0.011615542 0.106927566 -0.30396435 0.29406676 -0.21164626
0.18209076 -0.0018513261 0.1096764 0.00091666396 -0.2506755 0.032244295 -0.15949455 -0.3008407
0.075487025 0.04209994 -0.17774975 0.067121685 -0.17362955 0.16045967 0.056290906 0.28144816
-0.042818706 0.30276433 0.060419507 -0.26341277 0.2833384 -0.046254523 -0.06071913 0.09913592
0.16087438 0.11136216 0.15374038 0.108156115 0.28037798 0.25511587 -0.27578524 0.10779431
0.022068178 0.22197755 -0.15641263 -0.20593268 0.11098099 0.082082495 -0.17276452 -0.06657906
0.013518737 0.27399802 0.13359961 -0.09233414 -0.18008994 -0.08351311 -0.06628566 0.16230474
0.081058875 -0.06191669 0.11916075 -0.23567733 0.30392447 -0.17737134 -0.010838344 -0.043857433
-0.14600645 -0.12625885 -0.08602616 0.14254099 -0.20169942 -0.020173509 -0.1400345 0.12156129
-0.0023434635 0.099032044 -0.12228604 -0.25238392 0.030350769 0.29026017 -0.12012901 -0.26016298
-0.1865782 -0.09624978 0.24426804 -0.26303655 -0.10752672 -0.23106892 -0.26842907 -0.1457242
-0.25586793 0.27307284 -0.22030665 -0.029954355 0.035328537 0.19865297 -0.1704362 -0.19709603
-0.21819535 0.13737248 0.10957847 -0.28294876 0.08251122 0.06428306 0.29365584 0.29256135
-0.2574756 0.22868618 -0.28935495 -0.11573913 0.085789375 0.0017395342 -0.11251018 -0.06937557
-0.023124231 -0.12082176 0.045604046 0.21121015 -0.26092947 -0.30074567 0.12579525 -0.051929157
-0.10658813 0.28452304 0.21282776 0.18837379 0.29574344 0.039621655 -0.10216437 -0.06479149
0.03511182 0.2955657 0.28730166 -0.11250581 0.2981064 -0.16447479 0.28793564 -0.3005817
0.13688001 0.14495933 0.26078606 -0.030071113 0.070862174 -0.19957773 -0.15290162 0.11937662
0.11639041 0.14270814 0.18398283 -0.26750848 0.0035903938 -0.21878378 0.17222887 -0.012345176
0.14259635 -0.10032974 -0.04129948 0.15604982 0.036246423 0.21761505 -0.27359074 0.058942277
-0.13242468 -0.09394052 0.09746408 0.079015344 0.004155559 0.18555741 0.21286048 0.1753626
-0.24137004 0.29223928 0.24330866 0.21659565 -0.018556615 -0.0602254 0.004490607 -0.008995876
0.1743046 0.035627257 0.10747649 -0.15388204 -0.24984884 0.21211948 -0.11806505 -0.022423683
0.0041081305 0.22245215 0.08835883 0.1813231 0.26103413 0.0028576022 -0.2145053 0.28928557
0.22627556 0.045847736 -0.19592737 0.2863189 -0.07910029 -0.24652068 0.2428583 -0.28284016
-0.17962836 0.14009324 0.2107929 -0.2992963 0.14769608 -0.19494155 0.08897117 0.0944048
0.035686053 0.14549387 0.1684467 0.099136524 -0.14209096 -0.12557127 0.050519627 -0.09734783

conv_out.bias f4 [32]
00000000: e6a9 83bb 88da 95bb 3abf 9c3b 5a57 9abb
00000010: 2823 02bb 6a20 9c3b 0042 9ebb cf55 933b
00000020: 66f2 9cbb cd04 9abb 3550 9cbb 0756 9a3b
00000030: 6496 95bb cfb4 8cbb c412 6139 22ec 95bb
00000040: 5e0b 9cbb d2ab 93bb 6c97 953b aaaf 9e3b
00000050: 1880 98bb 94a1 9ebb 912e 9c3b 0557 98bb
00000060: 11aa 9cbb 1d02 9f3b 1380 9cbb c88d 633a
00000070: 9e2f 993b 5656 9d3b 9223 a03b 2893 993b
-0.004018056 -0.00457317 0.004783538 -0.00471012 -0.001985738 0.0047646062 -0.004829645 0.004496313
-0.0047896383 -0.0047002793 -0.0047703036 0.0047099623 -0.004565047 -0.004294015 0.00021464663 -0.0045752684
-0.0047620973 -0.0045065666 0.00456517 0.004842718 -0.004653942 -0.004841039 0.0047662933 -0.0046490454
-0.0047810157 0.004852547 -0.00477601 0.000868049 0.004674866 0.004801552 0.004887053 0.004686732
